nohup: ignoring input
2019-02-11 17:56:37,725 [/data00/home/labspeech_intern/wangkang/Tasnet/code/Conv-TasNet-myself/trainer.py:27 - INFO ] TasNET:
TasNET(
  (encoder): Encoder(
    (conv1d_U): Conv1d(1, 256, kernel_size=(20,), stride=(10,), bias=False)
  )
  (separator): TemporalConvNet(
    (network): Sequential(
      (0): ChannelwiseLayerNorm()
      (1): Conv1d(256, 256, kernel_size=(1,), stride=(1,), bias=False)
      (2): Sequential(
        (0): Sequential(
          (0): TemporalBlock(
            (net): Sequential(
              (0): Conv1d(256, 512, kernel_size=(1,), stride=(1,), bias=False)
              (1): PReLU(num_parameters=1)
              (2): GlobalLayerNorm()
              (3): DepthwiseSeparableConv(
                (net): Sequential(
                  (0): Conv1d(512, 512, kernel_size=(3,), stride=(1,), padding=(1,), groups=512, bias=False)
                  (1): PReLU(num_parameters=1)
                  (2): GlobalLayerNorm()
                  (3): Conv1d(512, 256, kernel_size=(1,), stride=(1,), bias=False)
                )
              )
            )
          )
          (1): TemporalBlock(
            (net): Sequential(
              (0): Conv1d(256, 512, kernel_size=(1,), stride=(1,), bias=False)
              (1): PReLU(num_parameters=1)
              (2): GlobalLayerNorm()
              (3): DepthwiseSeparableConv(
                (net): Sequential(
                  (0): Conv1d(512, 512, kernel_size=(3,), stride=(1,), padding=(2,), dilation=(2,), groups=512, bias=False)
                  (1): PReLU(num_parameters=1)
                  (2): GlobalLayerNorm()
                  (3): Conv1d(512, 256, kernel_size=(1,), stride=(1,), bias=False)
                )
              )
            )
          )
          (2): TemporalBlock(
            (net): Sequential(
              (0): Conv1d(256, 512, kernel_size=(1,), stride=(1,), bias=False)
              (1): PReLU(num_parameters=1)
              (2): GlobalLayerNorm()
              (3): DepthwiseSeparableConv(
                (net): Sequential(
                  (0): Conv1d(512, 512, kernel_size=(3,), stride=(1,), padding=(4,), dilation=(4,), groups=512, bias=False)
                  (1): PReLU(num_parameters=1)
                  (2): GlobalLayerNorm()
                  (3): Conv1d(512, 256, kernel_size=(1,), stride=(1,), bias=False)
                )
              )
            )
          )
          (3): TemporalBlock(
            (net): Sequential(
              (0): Conv1d(256, 512, kernel_size=(1,), stride=(1,), bias=False)
              (1): PReLU(num_parameters=1)
              (2): GlobalLayerNorm()
              (3): DepthwiseSeparableConv(
                (net): Sequential(
                  (0): Conv1d(512, 512, kernel_size=(3,), stride=(1,), padding=(8,), dilation=(8,), groups=512, bias=False)
                  (1): PReLU(num_parameters=1)
                  (2): GlobalLayerNorm()
                  (3): Conv1d(512, 256, kernel_size=(1,), stride=(1,), bias=False)
                )
              )
            )
          )
          (4): TemporalBlock(
            (net): Sequential(
              (0): Conv1d(256, 512, kernel_size=(1,), stride=(1,), bias=False)
              (1): PReLU(num_parameters=1)
              (2): GlobalLayerNorm()
              (3): DepthwiseSeparableConv(
                (net): Sequential(
                  (0): Conv1d(512, 512, kernel_size=(3,), stride=(1,), padding=(16,), dilation=(16,), groups=512, bias=False)
                  (1): PReLU(num_parameters=1)
                  (2): GlobalLayerNorm()
                  (3): Conv1d(512, 256, kernel_size=(1,), stride=(1,), bias=False)
                )
              )
            )
          )
          (5): TemporalBlock(
            (net): Sequential(
              (0): Conv1d(256, 512, kernel_size=(1,), stride=(1,), bias=False)
              (1): PReLU(num_parameters=1)
              (2): GlobalLayerNorm()
              (3): DepthwiseSeparableConv(
                (net): Sequential(
                  (0): Conv1d(512, 512, kernel_size=(3,), stride=(1,), padding=(32,), dilation=(32,), groups=512, bias=False)
                  (1): PReLU(num_parameters=1)
                  (2): GlobalLayerNorm()
                  (3): Conv1d(512, 256, kernel_size=(1,), stride=(1,), bias=False)
                )
              )
            )
          )
          (6): TemporalBlock(
            (net): Sequential(
              (0): Conv1d(256, 512, kernel_size=(1,), stride=(1,), bias=False)
              (1): PReLU(num_parameters=1)
              (2): GlobalLayerNorm()
              (3): DepthwiseSeparableConv(
                (net): Sequential(
                  (0): Conv1d(512, 512, kernel_size=(3,), stride=(1,), padding=(64,), dilation=(64,), groups=512, bias=False)
                  (1): PReLU(num_parameters=1)
                  (2): GlobalLayerNorm()
                  (3): Conv1d(512, 256, kernel_size=(1,), stride=(1,), bias=False)
                )
              )
            )
          )
          (7): TemporalBlock(
            (net): Sequential(
              (0): Conv1d(256, 512, kernel_size=(1,), stride=(1,), bias=False)
              (1): PReLU(num_parameters=1)
              (2): GlobalLayerNorm()
              (3): DepthwiseSeparableConv(
                (net): Sequential(
                  (0): Conv1d(512, 512, kernel_size=(3,), stride=(1,), padding=(128,), dilation=(128,), groups=512, bias=False)
                  (1): PReLU(num_parameters=1)
                  (2): GlobalLayerNorm()
                  (3): Conv1d(512, 256, kernel_size=(1,), stride=(1,), bias=False)
                )
              )
            )
          )
        )
        (1): Sequential(
          (0): TemporalBlock(
            (net): Sequential(
              (0): Conv1d(256, 512, kernel_size=(1,), stride=(1,), bias=False)
              (1): PReLU(num_parameters=1)
              (2): GlobalLayerNorm()
              (3): DepthwiseSeparableConv(
                (net): Sequential(
                  (0): Conv1d(512, 512, kernel_size=(3,), stride=(1,), padding=(1,), groups=512, bias=False)
                  (1): PReLU(num_parameters=1)
                  (2): GlobalLayerNorm()
                  (3): Conv1d(512, 256, kernel_size=(1,), stride=(1,), bias=False)
                )
              )
            )
          )
          (1): TemporalBlock(
            (net): Sequential(
              (0): Conv1d(256, 512, kernel_size=(1,), stride=(1,), bias=False)
              (1): PReLU(num_parameters=1)
              (2): GlobalLayerNorm()
              (3): DepthwiseSeparableConv(
                (net): Sequential(
                  (0): Conv1d(512, 512, kernel_size=(3,), stride=(1,), padding=(2,), dilation=(2,), groups=512, bias=False)
                  (1): PReLU(num_parameters=1)
                  (2): GlobalLayerNorm()
                  (3): Conv1d(512, 256, kernel_size=(1,), stride=(1,), bias=False)
                )
              )
            )
          )
          (2): TemporalBlock(
            (net): Sequential(
              (0): Conv1d(256, 512, kernel_size=(1,), stride=(1,), bias=False)
              (1): PReLU(num_parameters=1)
              (2): GlobalLayerNorm()
              (3): DepthwiseSeparableConv(
                (net): Sequential(
                  (0): Conv1d(512, 512, kernel_size=(3,), stride=(1,), padding=(4,), dilation=(4,), groups=512, bias=False)
                  (1): PReLU(num_parameters=1)
                  (2): GlobalLayerNorm()
                  (3): Conv1d(512, 256, kernel_size=(1,), stride=(1,), bias=False)
                )
              )
            )
          )
          (3): TemporalBlock(
            (net): Sequential(
              (0): Conv1d(256, 512, kernel_size=(1,), stride=(1,), bias=False)
              (1): PReLU(num_parameters=1)
              (2): GlobalLayerNorm()
              (3): DepthwiseSeparableConv(
                (net): Sequential(
                  (0): Conv1d(512, 512, kernel_size=(3,), stride=(1,), padding=(8,), dilation=(8,), groups=512, bias=False)
                  (1): PReLU(num_parameters=1)
                  (2): GlobalLayerNorm()
                  (3): Conv1d(512, 256, kernel_size=(1,), stride=(1,), bias=False)
                )
              )
            )
          )
          (4): TemporalBlock(
            (net): Sequential(
              (0): Conv1d(256, 512, kernel_size=(1,), stride=(1,), bias=False)
              (1): PReLU(num_parameters=1)
              (2): GlobalLayerNorm()
              (3): DepthwiseSeparableConv(
                (net): Sequential(
                  (0): Conv1d(512, 512, kernel_size=(3,), stride=(1,), padding=(16,), dilation=(16,), groups=512, bias=False)
                  (1): PReLU(num_parameters=1)
                  (2): GlobalLayerNorm()
                  (3): Conv1d(512, 256, kernel_size=(1,), stride=(1,), bias=False)
                )
              )
            )
          )
          (5): TemporalBlock(
            (net): Sequential(
              (0): Conv1d(256, 512, kernel_size=(1,), stride=(1,), bias=False)
              (1): PReLU(num_parameters=1)
              (2): GlobalLayerNorm()
              (3): DepthwiseSeparableConv(
                (net): Sequential(
                  (0): Conv1d(512, 512, kernel_size=(3,), stride=(1,), padding=(32,), dilation=(32,), groups=512, bias=False)
                  (1): PReLU(num_parameters=1)
                  (2): GlobalLayerNorm()
                  (3): Conv1d(512, 256, kernel_size=(1,), stride=(1,), bias=False)
                )
              )
            )
          )
          (6): TemporalBlock(
            (net): Sequential(
              (0): Conv1d(256, 512, kernel_size=(1,), stride=(1,), bias=False)
              (1): PReLU(num_parameters=1)
              (2): GlobalLayerNorm()
              (3): DepthwiseSeparableConv(
                (net): Sequential(
                  (0): Conv1d(512, 512, kernel_size=(3,), stride=(1,), padding=(64,), dilation=(64,), groups=512, bias=False)
                  (1): PReLU(num_parameters=1)
                  (2): GlobalLayerNorm()
                  (3): Conv1d(512, 256, kernel_size=(1,), stride=(1,), bias=False)
                )
              )
            )
          )
          (7): TemporalBlock(
            (net): Sequential(
              (0): Conv1d(256, 512, kernel_size=(1,), stride=(1,), bias=False)
              (1): PReLU(num_parameters=1)
              (2): GlobalLayerNorm()
              (3): DepthwiseSeparableConv(
                (net): Sequential(
                  (0): Conv1d(512, 512, kernel_size=(3,), stride=(1,), padding=(128,), dilation=(128,), groups=512, bias=False)
                  (1): PReLU(num_parameters=1)
                  (2): GlobalLayerNorm()
                  (3): Conv1d(512, 256, kernel_size=(1,), stride=(1,), bias=False)
                )
              )
            )
          )
        )
        (2): Sequential(
          (0): TemporalBlock(
            (net): Sequential(
              (0): Conv1d(256, 512, kernel_size=(1,), stride=(1,), bias=False)
              (1): PReLU(num_parameters=1)
              (2): GlobalLayerNorm()
              (3): DepthwiseSeparableConv(
                (net): Sequential(
                  (0): Conv1d(512, 512, kernel_size=(3,), stride=(1,), padding=(1,), groups=512, bias=False)
                  (1): PReLU(num_parameters=1)
                  (2): GlobalLayerNorm()
                  (3): Conv1d(512, 256, kernel_size=(1,), stride=(1,), bias=False)
                )
              )
            )
          )
          (1): TemporalBlock(
            (net): Sequential(
              (0): Conv1d(256, 512, kernel_size=(1,), stride=(1,), bias=False)
              (1): PReLU(num_parameters=1)
              (2): GlobalLayerNorm()
              (3): DepthwiseSeparableConv(
                (net): Sequential(
                  (0): Conv1d(512, 512, kernel_size=(3,), stride=(1,), padding=(2,), dilation=(2,), groups=512, bias=False)
                  (1): PReLU(num_parameters=1)
                  (2): GlobalLayerNorm()
                  (3): Conv1d(512, 256, kernel_size=(1,), stride=(1,), bias=False)
                )
              )
            )
          )
          (2): TemporalBlock(
            (net): Sequential(
              (0): Conv1d(256, 512, kernel_size=(1,), stride=(1,), bias=False)
              (1): PReLU(num_parameters=1)
              (2): GlobalLayerNorm()
              (3): DepthwiseSeparableConv(
                (net): Sequential(
                  (0): Conv1d(512, 512, kernel_size=(3,), stride=(1,), padding=(4,), dilation=(4,), groups=512, bias=False)
                  (1): PReLU(num_parameters=1)
                  (2): GlobalLayerNorm()
                  (3): Conv1d(512, 256, kernel_size=(1,), stride=(1,), bias=False)
                )
              )
            )
          )
          (3): TemporalBlock(
            (net): Sequential(
              (0): Conv1d(256, 512, kernel_size=(1,), stride=(1,), bias=False)
              (1): PReLU(num_parameters=1)
              (2): GlobalLayerNorm()
              (3): DepthwiseSeparableConv(
                (net): Sequential(
                  (0): Conv1d(512, 512, kernel_size=(3,), stride=(1,), padding=(8,), dilation=(8,), groups=512, bias=False)
                  (1): PReLU(num_parameters=1)
                  (2): GlobalLayerNorm()
                  (3): Conv1d(512, 256, kernel_size=(1,), stride=(1,), bias=False)
                )
              )
            )
          )
          (4): TemporalBlock(
            (net): Sequential(
              (0): Conv1d(256, 512, kernel_size=(1,), stride=(1,), bias=False)
              (1): PReLU(num_parameters=1)
              (2): GlobalLayerNorm()
              (3): DepthwiseSeparableConv(
                (net): Sequential(
                  (0): Conv1d(512, 512, kernel_size=(3,), stride=(1,), padding=(16,), dilation=(16,), groups=512, bias=False)
                  (1): PReLU(num_parameters=1)
                  (2): GlobalLayerNorm()
                  (3): Conv1d(512, 256, kernel_size=(1,), stride=(1,), bias=False)
                )
              )
            )
          )
          (5): TemporalBlock(
            (net): Sequential(
              (0): Conv1d(256, 512, kernel_size=(1,), stride=(1,), bias=False)
              (1): PReLU(num_parameters=1)
              (2): GlobalLayerNorm()
              (3): DepthwiseSeparableConv(
                (net): Sequential(
                  (0): Conv1d(512, 512, kernel_size=(3,), stride=(1,), padding=(32,), dilation=(32,), groups=512, bias=False)
                  (1): PReLU(num_parameters=1)
                  (2): GlobalLayerNorm()
                  (3): Conv1d(512, 256, kernel_size=(1,), stride=(1,), bias=False)
                )
              )
            )
          )
          (6): TemporalBlock(
            (net): Sequential(
              (0): Conv1d(256, 512, kernel_size=(1,), stride=(1,), bias=False)
              (1): PReLU(num_parameters=1)
              (2): GlobalLayerNorm()
              (3): DepthwiseSeparableConv(
                (net): Sequential(
                  (0): Conv1d(512, 512, kernel_size=(3,), stride=(1,), padding=(64,), dilation=(64,), groups=512, bias=False)
                  (1): PReLU(num_parameters=1)
                  (2): GlobalLayerNorm()
                  (3): Conv1d(512, 256, kernel_size=(1,), stride=(1,), bias=False)
                )
              )
            )
          )
          (7): TemporalBlock(
            (net): Sequential(
              (0): Conv1d(256, 512, kernel_size=(1,), stride=(1,), bias=False)
              (1): PReLU(num_parameters=1)
              (2): GlobalLayerNorm()
              (3): DepthwiseSeparableConv(
                (net): Sequential(
                  (0): Conv1d(512, 512, kernel_size=(3,), stride=(1,), padding=(128,), dilation=(128,), groups=512, bias=False)
                  (1): PReLU(num_parameters=1)
                  (2): GlobalLayerNorm()
                  (3): Conv1d(512, 256, kernel_size=(1,), stride=(1,), bias=False)
                )
              )
            )
          )
        )
        (3): Sequential(
          (0): TemporalBlock(
            (net): Sequential(
              (0): Conv1d(256, 512, kernel_size=(1,), stride=(1,), bias=False)
              (1): PReLU(num_parameters=1)
              (2): GlobalLayerNorm()
              (3): DepthwiseSeparableConv(
                (net): Sequential(
                  (0): Conv1d(512, 512, kernel_size=(3,), stride=(1,), padding=(1,), groups=512, bias=False)
                  (1): PReLU(num_parameters=1)
                  (2): GlobalLayerNorm()
                  (3): Conv1d(512, 256, kernel_size=(1,), stride=(1,), bias=False)
                )
              )
            )
          )
          (1): TemporalBlock(
            (net): Sequential(
              (0): Conv1d(256, 512, kernel_size=(1,), stride=(1,), bias=False)
              (1): PReLU(num_parameters=1)
              (2): GlobalLayerNorm()
              (3): DepthwiseSeparableConv(
                (net): Sequential(
                  (0): Conv1d(512, 512, kernel_size=(3,), stride=(1,), padding=(2,), dilation=(2,), groups=512, bias=False)
                  (1): PReLU(num_parameters=1)
                  (2): GlobalLayerNorm()
                  (3): Conv1d(512, 256, kernel_size=(1,), stride=(1,), bias=False)
                )
              )
            )
          )
          (2): TemporalBlock(
            (net): Sequential(
              (0): Conv1d(256, 512, kernel_size=(1,), stride=(1,), bias=False)
              (1): PReLU(num_parameters=1)
              (2): GlobalLayerNorm()
              (3): DepthwiseSeparableConv(
                (net): Sequential(
                  (0): Conv1d(512, 512, kernel_size=(3,), stride=(1,), padding=(4,), dilation=(4,), groups=512, bias=False)
                  (1): PReLU(num_parameters=1)
                  (2): GlobalLayerNorm()
                  (3): Conv1d(512, 256, kernel_size=(1,), stride=(1,), bias=False)
                )
              )
            )
          )
          (3): TemporalBlock(
            (net): Sequential(
              (0): Conv1d(256, 512, kernel_size=(1,), stride=(1,), bias=False)
              (1): PReLU(num_parameters=1)
              (2): GlobalLayerNorm()
              (3): DepthwiseSeparableConv(
                (net): Sequential(
                  (0): Conv1d(512, 512, kernel_size=(3,), stride=(1,), padding=(8,), dilation=(8,), groups=512, bias=False)
                  (1): PReLU(num_parameters=1)
                  (2): GlobalLayerNorm()
                  (3): Conv1d(512, 256, kernel_size=(1,), stride=(1,), bias=False)
                )
              )
            )
          )
          (4): TemporalBlock(
            (net): Sequential(
              (0): Conv1d(256, 512, kernel_size=(1,), stride=(1,), bias=False)
              (1): PReLU(num_parameters=1)
              (2): GlobalLayerNorm()
              (3): DepthwiseSeparableConv(
                (net): Sequential(
                  (0): Conv1d(512, 512, kernel_size=(3,), stride=(1,), padding=(16,), dilation=(16,), groups=512, bias=False)
                  (1): PReLU(num_parameters=1)
                  (2): GlobalLayerNorm()
                  (3): Conv1d(512, 256, kernel_size=(1,), stride=(1,), bias=False)
                )
              )
            )
          )
          (5): TemporalBlock(
            (net): Sequential(
              (0): Conv1d(256, 512, kernel_size=(1,), stride=(1,), bias=False)
              (1): PReLU(num_parameters=1)
              (2): GlobalLayerNorm()
              (3): DepthwiseSeparableConv(
                (net): Sequential(
                  (0): Conv1d(512, 512, kernel_size=(3,), stride=(1,), padding=(32,), dilation=(32,), groups=512, bias=False)
                  (1): PReLU(num_parameters=1)
                  (2): GlobalLayerNorm()
                  (3): Conv1d(512, 256, kernel_size=(1,), stride=(1,), bias=False)
                )
              )
            )
          )
          (6): TemporalBlock(
            (net): Sequential(
              (0): Conv1d(256, 512, kernel_size=(1,), stride=(1,), bias=False)
              (1): PReLU(num_parameters=1)
              (2): GlobalLayerNorm()
              (3): DepthwiseSeparableConv(
                (net): Sequential(
                  (0): Conv1d(512, 512, kernel_size=(3,), stride=(1,), padding=(64,), dilation=(64,), groups=512, bias=False)
                  (1): PReLU(num_parameters=1)
                  (2): GlobalLayerNorm()
                  (3): Conv1d(512, 256, kernel_size=(1,), stride=(1,), bias=False)
                )
              )
            )
          )
          (7): TemporalBlock(
            (net): Sequential(
              (0): Conv1d(256, 512, kernel_size=(1,), stride=(1,), bias=False)
              (1): PReLU(num_parameters=1)
              (2): GlobalLayerNorm()
              (3): DepthwiseSeparableConv(
                (net): Sequential(
                  (0): Conv1d(512, 512, kernel_size=(3,), stride=(1,), padding=(128,), dilation=(128,), groups=512, bias=False)
                  (1): PReLU(num_parameters=1)
                  (2): GlobalLayerNorm()
                  (3): Conv1d(512, 256, kernel_size=(1,), stride=(1,), bias=False)
                )
              )
            )
          )
        )
      )
      (3): Conv1d(256, 512, kernel_size=(1,), stride=(1,), bias=False)
    )
  )
  (decoder): Decoder(
    (basis_signals): Linear(in_features=256, out_features=20, bias=False)
  )
)
2019-02-11 17:56:37,726 [/data00/home/labspeech_intern/wangkang/Tasnet/code/Conv-TasNet-myself/trainer.py:30 - INFO ] Transfrom lr from str to float => 0.001
2019-02-11 17:56:41,011 [/data00/home/labspeech_intern/wangkang/Tasnet/code/Conv-TasNet-myself/trainer.py:46 - INFO ] Clip gradient by 2-norm 3
2019-02-11 17:56:41,013 [/data00/home/labspeech_intern/wangkang/Tasnet/code/Conv-TasNet-myself/trainer.py:112 - INFO ] Evaluating...
…
